proxyless_gaze/deployment/android/app/src/main/assets/model_quantized.tflite (tflite, 309136 bytes, 55 tensors)

blocks/0/mobile_inverted_conv/depth_conv/conv/weights_quant/FakeQuantWithMinMaxVars u1 [1, 3, 3, 12] scale=0.05079954 zero_point=175
000000 b0 ad af b0 b6 ad af a4 af b1 b0 ae ad a6 b2 a6
       0.05079954 -0.10159908 0.0 0.05079954 0.35559678 -0.10159908 0.0 -0.558795 0.0 0.10159908 0.05079954 -0.05079954 -0.10159908 -0.45719588 0.15239862 -0.45719588
000010 c0 a9 a8 de ab aa ad b4 b0 a7 ac a2 cb a8 a5 89
       0.8635922 -0.30479723 -0.35559678 2.3875785 -0.20319816 -0.2539977 -0.10159908 0.2539977 0.05079954 -0.40639633 -0.15239862 -0.660394 1.4223871 -0.35559678 -0.5079954 -1.9303826
000020 aa a8 a6 b7 b4 aa b7 aa b0 af aa 8c ad ab aa b2
       -0.2539977 -0.35559678 -0.45719588 0.40639633 0.2539977 -0.2539977 0.40639633 -0.2539977 0.05079954 0.0 -0.2539977 -1.7779839 -0.10159908 -0.20319816 -0.2539977 0.15239862
000030 a4 b8 c8 b3 a2 d5 b4 de b0 b2 af ac b5 ba 91 b8
       -0.558795 0.45719588 1.2699885 0.20319816 -0.660394 1.9303826 0.2539977 2.3875785 0.05079954 0.15239862 0.0 -0.15239862 0.30479723 0.558795 -1.5239862 0.45719588
000040 a1 d3 b5 f7 b0 b5 ad aa b4 ab b4 a4 b5 af a8 fe
       -0.71119356 1.8287835 0.30479723 3.657567 0.05079954 0.30479723 -0.10159908 -0.2539977 0.2539977 -0.20319816 0.2539977 -0.558795 0.30479723 0.0 -0.35559678 4.0131636
000050 ad aa ae b5 a4 bd c6 bc 9f 96 bd 01 c0 b6 aa a5
       -0.10159908 -0.2539977 -0.05079954 0.30479723 -0.558795 0.71119356 1.1683894 0.660394 -0.81279266 -1.2699885 0.71119356 -8.83912 0.8635922 0.35559678 -0.2539977 -0.5079954
000060 b5 c0 8f c5 9f 97 c1 d5 c0 bc ac 9e
       0.30479723 0.8635922 -1.6255853 1.11759 -0.81279266 -1.2191889 0.91439176 1.9303826 0.8635922 0.660394 -0.15239862 -0.8635922

blocks/0/mobile_inverted_conv/inverted_bottleneck/conv/weights_quant/FakeQuantWithMinMaxVars u1 [12, 1, 1, 8] scale=0.013185136 zero_point=129
000000 e5 11 ff 6d 4a 7a 8e 9f 8a 5f 58 57 86 83 ae 85
       1.3185136 -1.4767352 1.6613271 -0.26370272 -0.7251825 -0.09229595 0.17140678 0.39555407 0.118666224 -0.44829464 -0.5405906 -0.5537757 0.06592568 0.026370272 0.5933311 0.052740544
000010 84 7b ad 84 71 84 86 8d 74 88 7b 82 6e d0 79 84
       0.039555408 -0.079110816 0.58014596 0.039555408 -0.21096218 0.039555408 0.06592568 0.15822163 -0.17140678 0.09229595 -0.079110816 0.013185136 -0.25051758 1.0416257 -0.10548109 0.039555408
000020 7a 94 80 7b 4e 76 85 9c 92 70 66 81 95 84 7d 77
       -0.09229595 0.25051758 -0.013185136 -0.079110816 -0.67244196 -0.14503649 0.052740544 0.35599867 0.22414732 -0.22414732 -0.35599867 0.0 0.26370272 0.039555408 -0.052740544 -0.13185136
000030 9a 7a 70 6f 83 90 01 c8 7f 80 82 7f 81 8a 68 7f
       0.3296284 -0.09229595 -0.22414732 -0.23733245 0.026370272 0.19777703 -1.6876974 0.93614465 -0.026370272 -0.013185136 0.013185136 -0.026370272 0.0 0.118666224 -0.3296284 -0.026370272
000040 9b 6d 5f 82 96 81 7f 74 86 84 82 81 7f 64 ef 9a
       0.34281355 -0.26370272 -0.44829464 0.013185136 0.27688786 0.0 -0.026370272 -0.17140678 0.06592568 0.039555408 0.013185136 0.0 -0.026370272 -0.38236895 1.450365 0.3296284
000050 81 7e 8a 89 8d 7c 78 8e 85 85 8c c0 6e 5a 6e 8f
       0.0 -0.039555408 0.118666224 0.10548109 0.15822163 -0.06592568 -0.118666224 0.17140678 0.052740544 0.052740544 0.14503649 0.83066356 -0.25051758 -0.5142203 -0.25051758 0.1845919

blocks/0/mobile_inverted_conv/point_linear/conv/weights_quant/FakeQuantWithMinMaxVars u1 [8, 1, 1, 12] scale=0.017965604 zero_point=112
000000 31 5c 34 43 81 81 63 5c 2d 87 73 2c 75 76 98 69
       -1.1318331 -0.35931206 -1.0779362 -0.8084522 0.30541527 0.30541527 -0.23355284 -0.35931206 -1.2036954 0.41320887 0.05389681 -1.2216611 0.089828014 0.10779362 0.7186241 -0.12575923
000010 74 ff 6a 6c 91 7a 70 62 23 7a 25 a4 6f 73 79 7d
       0.071862414 2.5690813 -0.10779362 -0.071862414 0.59286493 0.17965603 0.0 -0.25151846 -1.3833514 0.17965603 -1.3474202 0.9342114 -0.017965604 0.05389681 0.16169043 0.23355284
000020 b5 6e 75 70 c8 71 41 94 7c 7c 6d 6e 44 7a 73 52
       1.2396266 -0.035931207 0.089828014 0.0 1.5809731 0.017965604 -0.84438336 0.6467617 0.21558724 0.21558724 -0.05389681 -0.035931207 -0.7904866 0.17965603 0.05389681 -0.5389681
000030 92 5d 87 56 63 4c 7a 7c d2 75 6e 31 71 70 71 76
       0.61083055 -0.34134647 0.41320887 -0.4671057 -0.23355284 -0.6467617 0.17965603 0.21558724 1.7606292 0.089828014 -0.035931207 -1.1318331 0.017965604 0.0 0.017965604 0.10779362
000040 6e 6c 86 37 86 01 6e 66 7b 8f 79 6d 64 52 3e 50
       -0.035931207 -0.071862414 0.3952433 -1.0240394 0.3952433 -1.994182 -0.035931207 -0.17965603 0.19762164 0.5569337 0.16169043 -0.05389681 -0.21558724 -0.5389681 -0.8982802 -0.5748993
000050 ac a5 77 8a 56 6b c0 9a 75 51 68 73 49 7a 71 47
       1.0779362 0.952177 0.12575923 0.4671057 -0.4671057 -0.089828014 1.4372482 0.75455534 0.089828014 -0.5569337 -0.14372483 0.05389681 -0.70065856 0.17965603 0.017965604 -0.7365897

blocks/1/mobile_inverted_conv/depth_conv/conv/weights_quant/FakeQuantWithMinMaxVars u1 [1, 5, 5, 20] scale=0.024394698 zero_point=105
000000 68 68 69 69 68 6b 6a 68 68 67 6c 68 69 6b 69 67
       -0.024394698 -0.024394698 0.0 0.0 -0.024394698 0.048789397 0.024394698 -0.024394698 -0.024394698 -0.048789397 0.073184095 -0.024394698 0.0 0.048789397 0.0 -0.048789397
000010 6d 6a 68 64 62 6f 67 69 6a 6c 6d 6a 69 68 6f 69
       0.097578794 0.024394698 -0.024394698 -0.12197349 -0.1707629 0.14636819 -0.048789397 0.0 0.024394698 0.073184095 0.097578794 0.024394698 0.0 -0.024394698 0.14636819 0.0
000020 69 6a 64 68 6d 6a 68 65 64 64 66 69 65 68 68 68
       0.0 0.024394698 -0.12197349 -0.024394698 0.097578794 0.024394698 -0.024394698 -0.097578794 -0.12197349 -0.12197349 -0.073184095 0.0 -0.097578794 -0.024394698 -0.024394698 -0.024394698
000030 69 66 63 68 66 68 5f 63 66 6b 67 67 6b 67 6e 67
       0.0 -0.073184095 -0.14636819 -0.024394698 -0.073184095 -0.024394698 -0.24394698 -0.14636819 -0.073184095 0.048789397 -0.048789397 -0.048789397 0.048789397 -0.048789397 0.12197349 -0.048789397
000040 70 64 68 69 69 68 64 6a 68 66 67 66 71 6a 68 6e
       0.1707629 -0.12197349 -0.024394698 0.0 0.0 -0.024394698 -0.12197349 0.024394698 -0.024394698 -0.073184095 -0.048789397 -0.073184095 0.19515759 0.024394698 -0.024394698 0.12197349
000050 70 68 68 68 68 6b 67 68 6a 68 6f 69 66 66 69 66
       0.1707629 -0.024394698 -0.024394698 -0.024394698 -0.024394698 0.048789397 -0.048789397 -0.024394698 0.024394698 -0.024394698 0.14636819 0.0 -0.073184095 -0.073184095 0.0 -0.073184095
000060 67 69 68 6c 67 66 6b 6a 66 69 69 69 6a 69 69 6a
       -0.048789397 0.0 -0.024394698 0.073184095 -0.048789397 -0.073184095 0.048789397 0.024394698 -0.073184095 0.0 0.0 0.0 0.024394698 0.0 0.0 0.024394698
000070 69 6a 68 6a 67 67 6b 65 5f 6f 6b 69 5f 6a 6f 68
       0.0 0.024394698 -0.024394698 0.024394698 -0.048789397 -0.048789397 0.048789397 -0.097578794 -0.24394698 0.14636819 0.048789397 0.0 -0.24394698 0.024394698 0.14636819 -0.024394698
000080 6f 66 6f 68 6e 71 6b 64 67 6d 67 62 5d 73 58 70
       0.14636819 -0.073184095 0.14636819 -0.024394698 0.12197349 0.19515759 0.048789397 -0.12197349 -0.048789397 0.097578794 -0.048789397 -0.1707629 -0.29273638 0.24394698 -0.41470987 0.1707629
000090 58 66 71 61 5a 66 78 66 72 6c 3f 5a 76 63 5d 5c
       -0.41470987 -0.073184095 0.19515759 -0.19515759 -0.36592048 -0.073184095 0.36592048 -0.073184095 0.21955228 0.073184095 -1.0245774 -0.36592048 0.31713107 -0.14636819 -0.29273638 -0.31713107
0000a0 69 64 6e 63 83 6a 65 68 6d 65 57 6a 6a 65 6d 69
       0.0 -0.12197349 0.12197349 -0.14636819 0.63426214 0.024394698 -0.097578794 -0.024394698 0.097578794 -0.097578794 -0.43910456 0.024394698 0.024394698 -0.097578794 0.097578794 0.0
0000b0 5d 6b 67 6c 6b 69 68 67 69 68 69 69 6a 68 70 69
       -0.29273638 0.048789397 -0.048789397 0.073184095 0.048789397 0.0 -0.024394698 -0.048789397 0.0 -0.024394698 0.0 0.0 0.024394698 -0.024394698 0.1707629 0.0
0000c0 64 66 66 68 5f 68 6a 61 69 66 67 67 65 5e 69 6a
       -0.12197349 -0.073184095 -0.073184095 -0.024394698 -0.24394698 -0.024394698 0.024394698 -0.19515759 0.0 -0.073184095 -0.048789397 -0.048789397 -0.097578794 -0.2683417 0.0 0.024394698
0000d0 6b 68 62 6b 67 61 69 6a 5f 69 6a 6d 5f 59 60 66
       0.048789397 -0.024394698 -0.1707629 0.048789397 -0.048789397 -0.19515759 0.0 0.024394698 -0.24394698 0.0 0.024394698 0.097578794 -0.24394698 -0.39031518 -0.21955228 -0.073184095
0000e0 3e b4 70 6b 67 64 6c 6c 6e 73 6e 6d 68 65 65 52
       -1.048972 1.8296024 0.1707629 0.048789397 -0.048789397 -0.12197349 0.073184095 0.073184095 0.12197349 0.24394698 0.12197349 0.097578794 -0.024394698 -0.097578794 -0.097578794 -0.5610781
0000f0 32 c0 bf a5 02 34 8a 27 c5 bb d5 3b 7c 9c 61 c7
       -1.3417084 2.1223388 2.097944 1.4636819 -2.5126538 -1.292919 0.80502504 -1.6100501 2.2443123 2.0003653 2.6346273 -1.1221561 0.46349928 1.2441297 -0.19515759 2.2931015

blocks/1/mobile_inverted_conv/inverted_bottleneck/conv/weights_quant/FakeQuantWithMinMaxVars u1 [20, 1, 1, 8] scale=0.004122081 zero_point=121
000000 4f 76 ae 9c 4f 81 78 9e 6a 88 8a 6a 8b 7e 87 6c
       -0.17312741 -0.012366244 0.2184703 0.14427285 -0.17312741 0.03297665 -0.004122081 0.152517 -0.061831217 0.061831217 0.07007538 -0.061831217 0.07419746 0.020610407 0.057709135 -0.053587057
000010 5f 8f 5f 72 82 7b 7d 9c 7e 7d 81 7c 83 02 99 7c
       -0.10717411 0.090685785 -0.10717411 -0.028854568 0.03709873 0.008244162 0.016488325 0.14427285 0.020610407 0.016488325 0.03297665 0.012366244 0.041220814 -0.49052766 0.1319066 0.012366244
000020 6f 89 88 71 8a 7b 84 68 77 6c 82 99 82 7a 76 4d
       -0.041220814 0.0659533 0.061831217 -0.03297665 0.07007538 0.008244162 0.045342892 -0.07007538 -0.008244162 -0.053587057 0.03709873 0.1319066 0.03709873 0.004122081 -0.012366244 -0.18137157
000030 b1 8a 9d b1 fe 7b 0c bc 86 af 6f 86 5a 75 65 76
       0.23083654 0.07007538 0.14839493 0.23083654 0.5482368 0.008244162 -0.44930685 0.27617943 0.053587057 0.22259238 -0.041220814 0.053587057 -0.12778452 -0.016488325 -0.08244163 -0.012366244
000040 67 77 62 a1 85 7a 7d 66 67 34 84 6b a6 7a 93 7f
       -0.07419746 -0.008244162 -0.09480787 0.16488326 0.049464975 0.004122081 0.016488325 -0.07831954 -0.07419746 -0.2844236 0.045342892 -0.057709135 0.18549365 0.004122081 0.10717411 0.024732487
000050 54 71 9b 8f 53 64 8f 8e 29 af 01 58 90 77 7d e6
       -0.152517 -0.03297665 0.14015076 0.090685785 -0.15663908 -0.08656371 0.090685785 0.08656371 -0.3297665 0.22259238 -0.49464974 -0.13602868 0.09480787 -0.008244162 0.016488325 0.44930685
000060 1d 6d 96 6b 5c a0 27 79 e0 94 61 85 c3 65 b6 8e
       -0.37923148 -0.049464975 0.119540356 -0.057709135 -0.119540356 0.16076116 -0.33801067 0.0 0.42457438 0.11129619 -0.09892995 0.049464975 0.305034 -0.08244163 0.25144696 0.08656371
000070 6a 83 7d 66 92 82 91 64 49 79 41 c7 93 78 7c 58
       -0.061831217 0.041220814 0.016488325 -0.07831954 0.10305203 0.03709873 0.09892995 -0.08656371 -0.1978599 0.0 -0.23083654 0.32152233 0.10717411 -0.004122081 0.012366244 -0.13602868
000080 71 90 80 62 bd 69 65 67 34 8a 24 d5 9d 74 85 5a
       -0.03297665 0.09480787 0.028854568 -0.09480787 0.2803015 -0.0659533 -0.08244163 -0.07419746 -0.2844236 0.07007538 -0.3503769 0.37923148 0.14839493 -0.020610407 0.049464975 -0.12778452
000090 72 ac 8c 7c 80 7f 7c 69 9b 88 7d 90 77 58 cb 8b
       -0.028854568 0.21022615 0.07831954 0.012366244 0.028854568 0.024732487 0.012366244 -0.0659533 0.14015076 0.061831217 0.016488325 0.09480787 -0.008244162 -0.13602868 0.33801067 0.07419746

blocks/1/mobile_inverted_conv/point_linear/conv/weights_quant/FakeQuantWithMinMaxVars u1 [16, 1, 1, 20] scale=0.0076132617 zero_point=124
000000 9c 8e 7a 61 3b 7e 68 41 d6 8f 4e 8e 5f 5d 7c 96
       0.24362437 0.13703871 -0.015226523 -0.20555806 -0.49486202 0.015226523 -0.15226524 -0.44918245 0.68519354 0.14465198 -0.35021004 0.13703871 -0.22078459 -0.23601112 0.0 0.1979448
000010 93 49 ff 76 6c 79 58 9c 1f 7f 9c ad c7 4a 90 8a
       0.17510502 -0.38827634 0.9973373 -0.04567957 -0.12181219 -0.022839785 -0.27407742 0.24362437 -0.7080333 0.022839785 0.24362437 0.37304983 0.5709946 -0.3806631 0.15226524 0.10658567
000020 7a b2 1c 76 92 94 18 62 96 c7 5a 4c b4 76 2a 6d
       -0.015226523 0.41111612 -0.7308731 -0.04567957 0.16749176 0.18271828 -0.7613262 -0.1979448 0.1979448 0.5709946 -0.2588509 -0.36543655 0.42634267 -0.04567957 -0.6242875 -0.11419892
000030 9d 38 65 52 77 06 5f 92 2f 62 36 8d 7d 1d 5e a6
       0.25123763 -0.5177018 -0.17510502 -0.31975698 -0.03806631 -0.8983649 -0.22078459 0.16749176 -0.58622116 -0.1979448 -0.53292835 0.12942545 0.0076132617 -0.72325987 -0.22839785 0.31975698
000040 b4 92 7d b2 ed ad 7d 91 6c 8e 73 98 83 22 01 72
       0.42634267 0.16749176 0.0076132617 0.41111612 0.8602986 0.37304983 0.0076132617 0.15987849 -0.12181219 0.13703871 -0.068519354 0.21317133 0.053292833 -0.68519354 -0.93643117 -0.07613262
000050 77 8a 69 db 84 6d 89 37 d0 a1 99 5c 85 90 95 6c
       -0.03806631 0.10658567 -0.14465198 0.72325987 0.060906094 -0.11419892 0.0989724 -0.52531505 0.63951397 0.2816907 0.22078459 -0.24362437 0.068519354 0.15226524 0.19033155 -0.12181219
000060 71 84 b4 96 9d cd 57 05 6d a8 84 ee 6c c1 6e 95
       -0.08374588 0.060906094 0.42634267 0.1979448 0.25123763 0.6166742 -0.2816907 -0.90597814 -0.11419892 0.33498353 0.060906094 0.8679118 -0.12181219 0.52531505 -0.10658567 0.19033155
000070 6e c1 9b 8b 8d 36 34 62 85 93 2d 36 1b 65 db ac
       -0.10658567 0.52531505 0.23601112 0.11419892 0.12942545 -0.53292835 -0.54815483 -0.1979448 0.068519354 0.17510502 -0.6014477 -0.53292835 -0.7384864 -0.17510502 0.72325987 0.36543655
000080 bb 8a 6e c0 9e 53 a4 7f 67 79 4a dd 51 b9 d1 a4
       0.47963548 0.10658567 -0.10658567 0.5177018 0.2588509 -0.31214374 0.30453047 0.022839785 -0.15987849 -0.022839785 -0.3806631 0.7384864 -0.32737026 0.46440896 0.6471273 0.30453047
000090 80 83 83 ae a9 57 a8 3e ab 5f 79 bf bb 4c 87 ac
       0.030453047 0.053292833 0.053292833 0.3806631 0.34259677 -0.2816907 0.33498353 -0.47202224 0.3578233 -0.22078459 -0.022839785 0.51008856 0.47963548 -0.36543655 0.08374588 0.36543655
0000a0 c8 a7 0c d7 69 8f 7f 25 5e 1f 41 b2 53 ad 83 b2
       0.5786079 0.32737026 -0.85268533 0.69280684 -0.14465198 0.14465198 0.022839785 -0.66235375 -0.22839785 -0.7080333 -0.44918245 0.41111612 -0.31214374 0.37304983 0.053292833 0.41111612
0000b0 6b 49 c6 52 6e 8b 58 68 b8 31 86 9f b1 74 77 88
       -0.12942545 -0.38827634 0.5633814 -0.31975698 -0.10658567 0.11419892 -0.27407742 -0.15226524 0.4567957 -0.5709946 0.07613262 0.26646417 0.40350288 -0.060906094 -0.03806631 0.09135914
0000c0 7f 8a 79 c7 61 6f a3 7c b5 0b b8 8d ae 92 c6 7f
       0.022839785 0.10658567 -0.022839785 0.5709946 -0.20555806 -0.0989724 0.2969172 0.0 0.4339559 -0.8602986 0.4567957 0.12942545 0.3806631 0.16749176 0.5633814 0.022839785
0000d0 6a 46 2c 41 78 94 8c 81 62 78 ad 9f b7 9c c8 b4
       -0.13703871 -0.41111612 -0.60906094 -0.44918245 -0.030453047 0.18271828 0.12181219 0.03806631 -0.1979448 -0.030453047 0.37304983 0.26646417 0.44918245 0.24362437 0.5786079 0.42634267
0000e0 4f 5c 2f d3 9f 92 41 66 3c 9b 9d 86 61 97 3f 34
       -0.34259677 -0.24362437 -0.58622116 0.66235375 0.26646417 0.16749176 -0.44918245 -0.16749176 -0.48724875 0.23601112 0.25123763 0.07613262 -0.20555806 0.20555806 -0.46440896 -0.54815483
0000f0 71 b6 af 96 41 6e 90 39 4e 42 84 9c 8b 83 67 be
       -0.08374588 0.44156918 0.38827634 0.1979448 -0.44918245 -0.10658567 0.15226524 -0.51008856 -0.35021004 -0.44156918 0.060906094 0.24362437 0.11419892 0.053292833 -0.15987849 0.50247526

blocks/10/mobile_inverted_conv/depth_conv/conv/weights_quant/FakeQuantWithMinMaxVars u1 [1, 5, 5, 80] scale=0.037725374 zero_point=152
000000 8d 9c 9a 8f 8f a7 98 97 97 97 8f 9a a0 94 9d 98
       -0.4149791 0.1509015 0.07545075 -0.33952838 -0.33952838 0.5658806 0.0 -0.037725374 -0.037725374 -0.037725374 -0.33952838 0.07545075 0.301803 -0.1509015 0.18862687 0.0
000010 99 95 9a 9f a7 98 9e 94 94 9c 8d 95 96 9a 98 b7
       0.037725374 -0.11317612 0.07545075 0.2640776 0.5658806 0.0 0.22635224 -0.1509015 -0.1509015 0.1509015 -0.4149791 -0.11317612 -0.07545075 0.07545075 0.0 1.1694866
000020 92 98 97 8a 91 8d 96 99 95 97 95 98 9b 99 a0 97
       -0.22635224 0.0 -0.037725374 -0.5281552 -0.2640776 -0.4149791 -0.07545075 0.037725374 -0.11317612 -0.037725374 -0.11317612 0.0 0.11317612 0.037725374 0.301803 -0.037725374
000030 99 a5 8f 9e a0 93 94 8b 9d 8e 94 94 96 99 97 98
       0.037725374 0.49042988 -0.33952838 0.22635224 0.301803 -0.18862687 -0.1509015 -0.49042988 0.18862687 -0.37725374 -0.1509015 -0.1509015 -0.07545075 0.037725374 -0.037725374 0.0
000040 9c 8d 9b 9c 91 98 9e 9a 9a 97 91 9b 9f 92 99 93
       0.1509015 -0.4149791 0.11317612 0.1509015 -0.2640776 0.0 0.22635224 0.07545075 0.07545075 -0.037725374 -0.2640776 0.11317612 0.2640776 -0.22635224 0.037725374 -0.18862687
000050 91 a2 99 97 95 a0 93 99 99 9c 8d 96 a1 94 9a 9f
       -0.2640776 0.37725374 0.037725374 -0.037725374 -0.11317612 0.301803 -0.18862687 0.037725374 0.037725374 0.1509015 -0.4149791 -0.07545075 0.33952838 -0.1509015 0.07545075 0.2640776
000060 98 9a 94 98 9c 99 99 95 98 9b 97 94 a0 9a 98 97
       0.0 0.07545075 -0.1509015 0.0 0.1509015 0.037725374 0.037725374 -0.11317612 0.0 0.11317612 -0.037725374 -0.1509015 0.301803 0.07545075 0.0 -0.037725374
000070 93 96 95 92 98 90 99 9a 92 92 9a 95 93 99 9c 98
       -0.18862687 -0.07545075 -0.11317612 -0.22635224 0.0 -0.301803 0.037725374 0.07545075 -0.22635224 -0.22635224 0.07545075 -0.11317612 -0.18862687 0.037725374 0.1509015 0.0
000080 99 9e 88 96 a0 96 95 96 98 95 99 94 90 98 99 9b
       0.037725374 0.22635224 -0.603606 -0.07545075 0.301803 -0.07545075 -0.11317612 -0.07545075 0.0 -0.11317612 0.037725374 -0.1509015 -0.301803 0.0 0.037725374 0.11317612
000090 a2 97 99 92 96 96 91 98 97 a2 99 a1 9d 99 9b 98
       0.37725374 -0.037725374 0.037725374 -0.22635224 -0.07545075 -0.07545075 -0.2640776 0.0 -0.037725374 0.37725374 0.037725374 0.33952838 0.18862687 0.037725374 0.11317612 0.0
0000a0 93 8f 9f 95 91 a8 92 92 9c b5 7c 99 a9 95 9d 8b
       -0.18862687 -0.33952838 0.2640776 -0.11317612 -0.2640776 0.603606 -0.22635224 -0.22635224 0.1509015 1.0940359 -1.0563104 0.037725374 0.6413314 -0.11317612 0.18862687 -0.49042988
0000b0 98 97 a7 76 aa 95 af 97 8e a3 8b 97 90 9b 9b c5
       0.0 -0.037725374 0.5658806 -1.2826627 0.67905676 -0.11317612 0.8676836 -0.037725374 -0.37725374 0.4149791 -0.49042988 -0.037725374 -0.301803 0.11317612 0.11317612 1.6976418
0000c0 91 9b 8e 8c 89 98 93 9d 86 8e aa 93 9a 9a a3 9a
       -0.2640776 0.11317612 -0.37725374 -0.4527045 -0.5658806 0.0 -0.18862687 0.18862687 -0.67905676 -0.37725374 0.67905676 -0.18862687 0.07545075 0.07545075 0.4149791 0.07545075
0000d0 98 91 a4 9a a6 89 8d 8f 99 8a 9b 9f 8e 98 a1 9d
       0.0 -0.2640776 0.4527045 0.07545075 0.5281552 -0.5658806 -0.4149791 -0.33952838 0.037725374 -0.5281552 0.11317612 0.2640776 -0.37725374 0.0 0.33952838 0.18862687
0000e0 87 92 97 96 8e 98 af 9b 9e 95 96 9e 9f 9c 97 96
       -0.6413314 -0.22635224 -0.037725374 -0.07545075 -0.37725374 0.0 0.8676836 0.11317612 0.22635224 -0.11317612 -0.07545075 0.22635224 0.2640776 0.1509015 -0.037725374 -0.07545075
0000f0 91 95 99 97 9d 9e 95 98 99 98 8b 9a a3 94 97 9d
       -0.2640776 -0.11317612 0.037725374 -0.037725374 0.18862687 0.22635224 -0.11317612 0.0 0.037725374 0.0 -0.49042988 0.07545075 0.4149791 -0.1509015 -0.037725374 0.18862687

blocks/10/mobile_inverted_conv/inverted_bottleneck/conv/weights_quant/FakeQuantWithMinMaxVars u1 [80, 1, 1, 40] scale=0.0015249746 zero_point=122
000000 ad 92 6e a3 98 75 74 83 42 76 7e a9 50 61 9d b6
       0.077773705 0.03659939 -0.018299695 0.06252396 0.04574924 -0.007624873 -0.009149848 0.013724771 -0.08539858 -0.0060998984 0.0060998984 0.0716738 -0.06404893 -0.038124364 0.05337411 0.09149848
000010 66 ac 7a 58 68 70 7d 77 6e 7a 66 9a a9 60 7f 54
       -0.030499492 0.07624873 0.0 -0.051849134 -0.027449543 -0.015249746 0.004574924 -0.004574924 -0.018299695 0.0 -0.030499492 0.048799187 0.0716738 -0.039649338 0.007624873 -0.057949036
000020 ad 56 49 73 6a 63 6e 89 79 60 55 63 92 95 68 a1
       0.077773705 -0.054899085 -0.07472376 -0.010674822 -0.024399593 -0.035074417 -0.018299695 0.02287462 -0.0015249746 -0.039649338 -0.05642406 -0.035074417 0.03659939 0.041174315 -0.027449543 0.05947401
000030 7e 82 75 6c a7 90 89 92 4c 72 6f 7a a4 8c 75 49
       0.0060998984 0.012199797 -0.007624873 -0.021349644 0.068623856 0.033549443 0.02287462 0.03659939 -0.07014883 -0.012199797 -0.016774721 0.0 0.06404893 0.027449543 -0.007624873 -0.07472376
000040 8a 70 56 7b 3e 59 57 6d 73 b3 32 8a 66 77 57 75
       0.024399593 -0.015249746 -0.054899085 0.0015249746 -0.09149848 -0.05032416 -0.05337411 -0.019824669 -0.010674822 0.086923555 -0.10979817 0.024399593 -0.030499492 -0.004574924 -0.05337411 -0.007624873
000050 88 71 6b a0 6a 98 63 3e 72 9e 5f 63 8d 7b 8d 7e
       0.021349644 -0.013724771 -0.02287462 0.057949036 -0.024399593 0.04574924 -0.035074417 -0.09149848 -0.012199797 0.054899085 -0.041174315 -0.035074417 0.028974518 0.0015249746 0.028974518 0.0060998984
000060 7d 78 63 71 63 6c a3 79 78 67 a9 9e 73 76 7f 80
       0.004574924 -0.0030499492 -0.035074417 -0.013724771 -0.035074417 -0.021349644 0.06252396 -0.0015249746 -0.0030499492 -0.028974518 0.0716738 0.054899085 -0.010674822 -0.0060998984 0.007624873 0.009149848
000070 60 92 a0 68 a6 8b 7b 77 40 6e 8f 74 6b 6e 97 c7
       -0.039649338 0.03659939 0.057949036 -0.027449543 0.067098886 0.025924567 0.0015249746 -0.004574924 -0.088448524 -0.018299695 0.032024466 -0.009149848 -0.02287462 -0.018299695 0.044224262 0.11742304
000080 8e 6d b4 87 70 5f 6a 84 8f 69 95 54 6e 76 7a 49
       0.030499492 -0.019824669 0.088448524 0.019824669 -0.015249746 -0.041174315 -0.024399593 0.015249746 0.032024466 -0.025924567 0.041174315 -0.057949036 -0.018299695 -0.0060998984 0.0 -0.07472376
000090 73 54 7b 8e 7b 95 86 58 3c 5f 59 5a 81 80 59 84
       -0.010674822 -0.057949036 0.0015249746 0.030499492 0.0015249746 0.041174315 0.018299695 -0.051849134 -0.09454843 -0.041174315 -0.05032416 -0.048799187 0.010674822 0.009149848 -0.05032416 0.015249746
0000a0 66 8b 73 61 63 70 91 7a 7d 7c 60 4f 46 86 79 83
       -0.030499492 0.025924567 -0.010674822 -0.038124364 -0.035074417 -0.015249746 0.035074417 0.0 0.004574924 0.0030499492 -0.039649338 -0.06557391 -0.079298675 0.018299695 -0.0015249746 0.013724771
0000b0 78 76 64 5a 91 99 4d 6e 43 96 64 8d 57 8e 3f 85
       -0.0030499492 -0.0060998984 -0.033549443 -0.048799187 0.035074417 0.047274213 -0.068623856 -0.018299695 -0.0838736 0.04269929 -0.033549443 0.028974518 -0.05337411 0.030499492 -0.0899735 0.016774721
0000c0 81 6a 7e 78 71 90 af 79 4b 81 a0 59 63 85 8c 60
       0.010674822 -0.024399593 0.0060998984 -0.0030499492 -0.013724771 0.033549443 0.08082365 -0.0015249746 -0.0716738 0.010674822 0.057949036 -0.05032416 -0.035074417 0.016774721 0.027449543 -0.039649338
0000d0 79 6f 79 55 53 a6 74 78 7f 81 5e 3a 88 a3 56 7c
       -0.0015249746 -0.016774721 -0.0015249746 -0.05642406 -0.05947401 0.067098886 -0.009149848 -0.0030499492 0.007624873 0.010674822 -0.04269929 -0.097598374 0.021349644 0.06252396 -0.054899085 0.0030499492
0000e0 2c 97 70 9d 58 99 3d 59 8c 5a 79 62 8c 83 af 68
       -0.11894802 0.044224262 -0.015249746 0.05337411 -0.051849134 0.047274213 -0.09302345 -0.05032416 0.027449543 -0.048799187 -0.0015249746 -0.03659939 0.027449543 0.013724771 0.08082365 -0.027449543
0000f0 56 6d 8a 6f 5d 81 83 ac 6c 8d 87 5e b2 93 7a 46
       -0.054899085 -0.019824669 0.024399593 -0.016774721 -0.044224262 0.010674822 0.013724771 0.07624873 -0.021349644 0.028974518 0.019824669 -0.04269929 0.08539858 0.038124364 0.0 -0.079298675

blocks/10/mobile_inverted_conv/point_linear/conv/weights_quant/FakeQuantWithMinMaxVars u1 [40, 1, 1, 80] scale=0.007864013 zero_point=95
000000 6f 4c 74 69 0a 77 3a 7e 65 19 7d 5c 55 6a 82 6d
       0.12582421 -0.14941625 0.16514428 0.07864013 -0.6684411 0.18873632 -0.29096848 0.24378441 0.04718408 -0.55048096 0.2359204 -0.02359204 -0.07864013 0.08650415 0.27524048 0.11009619
000010 4d a7 8c 56 6a 76 54 29 4f 57 45 4e 8f 45 89 75
       -0.14155224 0.56620896 0.35388058 -0.07077612 0.08650415 0.1808723 -0.08650415 -0.42465672 -0.12582421 -0.06291211 -0.20446435 -0.13368823 0.37747264 -0.20446435 0.33028856 0.1730083
000020 5b 4f 8b 0f 3d 6a 31 31 62 35 93 27 0d d0 35 1d
       -0.031456053 -0.12582421 0.3460166 -0.62912107 -0.26737645 0.08650415 -0.3617446 -0.3617446 0.02359204 -0.33028856 0.4089287 -0.44038475 -0.64484906 0.8886335 -0.33028856 -0.51902485
000030 48 1b 6d 8f 69 44 36 82 7b 4c 2d 42 52 6c 6e 49
       -0.1808723 -0.5347529 0.11009619 0.37747264 0.07864013 -0.21232836 -0.32242453 0.27524048 0.22019237 -0.14941625 -0.39320067 -0.22805639 -0.10223217 0.10223217 0.1179602 -0.1730083
000040 65 3d ac 4a 46 5a 4d 46 68 64 7a 4b 50 69 33 6d
       0.04718408 -0.26737645 0.605529 -0.16514428 -0.19660033 -0.039320067 -0.14155224 -0.19660033 0.07077612 0.039320067 0.21232836 -0.15728027 -0.1179602 0.07864013 -0.3460166 0.11009619
000050 68 61 6b 70 74 7e 60 4c 52 40 51 77 2e 68 61 53
       0.07077612 0.015728027 0.09436816 0.13368823 0.16514428 0.24378441 0.007864013 -0.14941625 -0.10223217 -0.24378441 -0.11009619 0.18873632 -0.38533664 0.07077612 0.015728027 -0.09436816
000060 42 54 5f 38 55 64 6b 46 6a 41 92 52 5d 6a 62 49
       -0.22805639 -0.08650415 0.0 -0.30669653 -0.07864013 0.039320067 0.09436816 -0.19660033 0.08650415 -0.2359204 0.4010647 -0.10223217 -0.015728027 0.08650415 0.02359204 -0.1730083
000070 48 56 3a 73 4c 59 5e 91 65 54 4b 36 6c 37 75 64
       -0.1808723 -0.07077612 -0.29096848 0.15728027 -0.14941625 -0.04718408 -0.007864013 0.39320067 0.04718408 -0.08650415 -0.15728027 -0.32242453 0.10223217 -0.31456053 0.1730083 0.039320067
000080 5c 79 7f 58 43 4c 5e 48 5f 52 41 8c 61 49 2f 65
       -0.02359204 0.20446435 0.25164843 -0.055048093 -0.22019237 -0.14941625 -0.007864013 -0.1808723 0.0 -0.10223217 -0.2359204 0.35388058 0.015728027 -0.1730083 -0.37747264 0.04718408
000090 71 45 39 67 55 42 53 69 57 75 75 77 55 59 59 6d
       0.14155224 -0.20446435 -0.2988325 0.06291211 -0.07864013 -0.22805639 -0.09436816 0.07864013 -0.06291211 0.1730083 0.1730083 0.18873632 -0.07864013 -0.04718408 -0.04718408 0.11009619
0000a0 6b 51 72 78 66 2c 3a 2d 5d 16 5a 24 70 5a 50 30
       0.09436816 -0.11009619 0.14941625 0.19660033 0.055048093 -0.4010647 -0.29096848 -0.39320067 -0.015728027 -0.57407296 -0.039320067 -0.4639768 0.13368823 -0.039320067 -0.1179602 -0.36960864
0000b0 a2 8f 7f 5c 5f 60 5d 55 76 68 53 3a 57 46 75 49
       0.5268889 0.37747264 0.25164843 -0.02359204 0.0 0.007864013 -0.015728027 -0.07864013 0.1808723 0.07077612 -0.09436816 -0.29096848 -0.06291211 -0.19660033 0.1730083 -0.1730083
0000c0 3b 5a 4c 37 67 9c 5f b1 8a 4d 64 5c 61 61 4d 8b
       -0.28310448 -0.039320067 -0.14941625 -0.31456053 0.06291211 0.4797048 0.0 0.64484906 0.3381526 -0.14155224 0.039320067 -0.02359204 0.015728027 0.015728027 -0.14155224 0.3460166
0000d0 42 7f 64 42 72 84 67 62 3e 8d 4c 49 5b 50 0d 34
       -0.22805639 0.25164843 0.039320067 -0.22805639 0.14941625 0.29096848 0.06291211 0.02359204 -0.25951242 0.3617446 -0.14941625 -0.1730083 -0.031456053 -0.1179602 -0.64484906 -0.3381526
0000e0 5e 34 3f 4a 29 6b 28 86 48 50 64 60 40 6f 3b 85
       -0.007864013 -0.3381526 -0.25164843 -0.16514428 -0.42465672 0.09436816 -0.43252075 0.30669653 -0.1808723 -0.1179602 0.039320067 0.007864013 -0.24378441 0.12582421 -0.28310448 0.2988325
0000f0 98 6e 65 80 4b 8a 60 86 a0 3e 55 80 35 87 77 60
       0.44824874 0.1179602 0.04718408 0.25951242 -0.15728027 0.3381526 0.007864013 0.30669653 0.51116085 -0.25951242 -0.07864013 0.25951242 -0.33028856 0.31456053 0.18873632 0.007864013

blocks/11/mobile_inverted_conv/depth_conv/conv/weights_quant/FakeQuantWithMinMaxVars u1 [1, 5, 5, 160] scale=0.033562306 zero_point=112
000000 6f 7a 6f 69 72 78 6c 6d 74 71 7b 6f 6b 6e 72 7b
       -0.033562306 0.33562306 -0.033562306 -0.23493615 0.06712461 0.26849845 -0.13424923 -0.10068692 0.13424923 0.033562306 0.36918536 -0.033562306 -0.16781153 -0.06712461 0.06712461 0.36918536
000010 6a 6d 6d 6c 71 74 75 6f 72 75 6f 6e 60 78 6d 75
       -0.20137385 -0.10068692 -0.10068692 -0.13424923 0.033562306 0.13424923 0.16781153 -0.033562306 0.06712461 0.16781153 -0.033562306 -0.06712461 -0.5369969 0.26849845 -0.10068692 0.16781153
000020 73 6d 78 6d 71 6f 71 69 71 6f 70 6c 6c 72 76 6a
       0.10068692 -0.10068692 0.26849845 -0.10068692 0.033562306 -0.033562306 0.033562306 -0.23493615 0.033562306 -0.033562306 0.0 -0.13424923 -0.13424923 0.06712461 0.20137385 -0.20137385
000030 71 6d 6f 69 76 75 6e 6d 6c 6f 6f 72 72 6d 75 75
       0.033562306 -0.10068692 -0.033562306 -0.23493615 0.20137385 0.16781153 -0.06712461 -0.10068692 -0.13424923 -0.033562306 -0.033562306 0.06712461 0.06712461 -0.10068692 0.16781153 0.16781153
000040 73 74 74 72 6f 71 6c 67 74 72 6e 6c 6a 70 6e 69
       0.10068692 0.13424923 0.13424923 0.06712461 -0.033562306 0.033562306 -0.13424923 -0.30206075 0.13424923 0.06712461 -0.06712461 -0.13424923 -0.20137385 0.0 -0.06712461 -0.23493615
000050 77 6d 72 6e 6d 70 6d 6f 6c 6b 6b 72 75 76 71 69
       0.23493615 -0.10068692 0.06712461 -0.06712461 -0.10068692 0.0 -0.10068692 -0.033562306 -0.13424923 -0.16781153 -0.16781153 0.06712461 0.16781153 0.20137385 0.033562306 -0.23493615
000060 73 75 7e 66 6d 76 73 71 70 72 6d 6c 71 6e 6f 72
       0.10068692 0.16781153 0.4698723 -0.33562306 -0.10068692 0.20137385 0.10068692 0.033562306 0.0 0.06712461 -0.10068692 -0.13424923 0.033562306 -0.06712461 -0.033562306 0.06712461
000070 6c 6d 6a 61 7c 70 4f 6a 6f 66 6f 75 75 78 6e 75
       -0.13424923 -0.10068692 -0.20137385 -0.5034346 0.4027477 0.0 -1.1075561 -0.20137385 -0.033562306 -0.33562306 -0.033562306 0.16781153 0.16781153 0.26849845 -0.06712461 0.16781153
000080 6e 70 70 6e 71 6c 75 73 6e 69 6d 73 70 6f 66 71
       -0.06712461 0.0 0.0 -0.06712461 0.033562306 -0.13424923 0.16781153 0.10068692 -0.06712461 -0.23493615 -0.10068692 0.10068692 0.0 -0.033562306 -0.33562306 0.033562306
000090 6f 68 73 66 76 72 73 76 6a 6f 6f 72 73 6e 6c 72
       -0.033562306 -0.26849845 0.10068692 -0.33562306 0.20137385 0.06712461 0.10068692 0.20137385 -0.20137385 -0.033562306 -0.033562306 0.06712461 0.10068692 -0.06712461 -0.13424923 0.06712461
0000a0 71 72 6f 74 6e 77 6e 6c 75 76 73 6f 75 77 70 70
       0.033562306 0.06712461 -0.033562306 0.13424923 -0.06712461 0.23493615 -0.06712461 -0.13424923 0.16781153 0.20137385 0.10068692 -0.033562306 0.16781153 0.23493615 0.0 0.0
0000b0 6c 70 73 70 6c 6f 68 6f 6e 71 6f 72 62 7a 70 6d
       -0.13424923 0.0 0.10068692 0.0 -0.13424923 -0.033562306 -0.26849845 -0.033562306 -0.06712461 0.033562306 -0.033562306 0.06712461 -0.4698723 0.33562306 0.0 -0.10068692
0000c0 74 6f 74 6d 75 6f 71 70 70 6f 6f 70 6f 6f 73 6c
       0.13424923 -0.033562306 0.13424923 -0.10068692 0.16781153 -0.033562306 0.033562306 0.0 0.0 -0.033562306 -0.033562306 0.0 -0.033562306 -0.033562306 0.10068692 -0.13424923
0000d0 71 6f 70 6e 71 70 6b 6d 68 6f 6b 6e 78 6f 74 70
       0.033562306 -0.033562306 0.0 -0.06712461 0.033562306 0.0 -0.16781153 -0.10068692 -0.26849845 -0.033562306 -0.16781153 -0.06712461 0.26849845 -0.033562306 0.13424923 0.0
0000e0 70 7a 6a 71 6e 6d 6b 72 70 6f 71 6c 6d 70 6e 6e
       0.0 0.33562306 -0.20137385 0.033562306 -0.06712461 -0.10068692 -0.16781153 0.06712461 0.0 -0.033562306 0.033562306 -0.13424923 -0.10068692 0.0 -0.06712461 -0.06712461
0000f0 70 77 72 6f 76 72 72 6c 6e 65 6e 71 72 74 73 74
       0.0 0.23493615 0.06712461 -0.033562306 0.20137385 0.06712461 0.06712461 -0.13424923 -0.06712461 -0.36918536 -0.06712461 0.033562306 0.06712461 0.13424923 0.10068692 0.13424923

blocks/11/mobile_inverted_conv/inverted_bottleneck/conv/weights_quant/FakeQuantWithMinMaxVars u1 [160, 1, 1, 40] scale=0.0013761341 zero_point=139
000000 b4 9d a6 a9 7c a3 9e a4 c3 91 a2 7a 91 8f bb ac
       0.0564215 0.024770414 0.03715562 0.041284025 -0.020642012 0.033027217 0.026146548 0.034403354 0.07706351 0.008256804 0.031651083 -0.02339428 0.008256804 0.0055045364 0.06605443 0.045412425
000010 8a 8c 90 6e 8b 4b 5b b4 6a 73 92 73 6d 87 5f a1
       -0.0013761341 0.0013761341 0.006880671 -0.039907888 0.0 -0.08807258 -0.06605443 0.0564215 -0.045412425 -0.033027217 0.009632939 -0.033027217 -0.041284025 -0.0055045364 -0.0605499 0.03027495
000020 a9 ba 8d 86 93 71 9b 73 8a 8a 8e 76 a3 7e 8e 88
       0.041284025 0.064678304 0.0027522682 -0.006880671 0.011009073 -0.035779487 0.022018146 -0.033027217 -0.0013761341 -0.0013761341 0.004128402 -0.028898817 0.033027217 -0.017889744 0.004128402 -0.004128402
000030 76 b2 73 a1 4c b2 9a 83 6a 54 74 99 7c 84 a3 85
       -0.028898817 0.05366923 -0.033027217 0.03027495 -0.086696446 0.05366923 0.020642012 -0.011009073 -0.045412425 -0.07568738 -0.031651083 0.019265877 -0.020642012 -0.009632939 0.033027217 -0.008256804
000040 a4 ad 92 89 75 98 d0 73 69 74 79 c1 b0 93 73 5e
       0.034403354 0.04678856 0.009632939 -0.0027522682 -0.03027495 0.017889744 0.094953254 -0.033027217 -0.04678856 -0.031651083 -0.024770414 0.07431124 0.050916962 0.011009073 -0.033027217 -0.061926033
000050 90 80 8c 8d 74 93 93 63 a8 b6 3b 9b a0 87 40 c7
       0.006880671 -0.015137475 0.0013761341 0.0027522682 -0.031651083 0.011009073 0.011009073 -0.055045366 0.039907888 0.059173767 -0.11009073 0.022018146 0.028898817 -0.0055045364 -0.10321006 0.08256805
000060 46 7c 5f 87 b3 dd 70 80 c4 b5 a5 70 73 62 86 7e
       -0.094953254 -0.020642012 -0.0605499 -0.0055045364 0.055045366 0.112843 -0.03715562 -0.015137475 0.078439645 0.057797633 0.035779487 -0.03715562 -0.033027217 -0.0564215 -0.006880671 -0.017889744
000070 90 82 6e 92 a0 91 5f 95 cd c5 81 91 9b af 89 d8
       0.006880671 -0.012385207 -0.039907888 0.009632939 0.028898817 0.008256804 -0.0605499 0.013761342 0.09082485 0.079815775 -0.013761342 0.008256804 0.022018146 0.04954083 -0.0027522682 0.10596233
000080 c0 64 5c b5 51 8b 6d 6e d0 b2 b8 59 9c b5 a1 54
       0.072935104 -0.05366923 -0.064678304 0.057797633 -0.079815775 0.0 -0.041284025 -0.039907888 0.094953254 0.05366923 0.061926033 -0.06880671 0.02339428 0.057797633 0.03027495 -0.07568738
000090 56 89 ad a6 6d 91 8f 69 54 b8 b3 7b 65 b1 4c 63
       -0.072935104 -0.0027522682 0.04678856 0.03715562 -0.041284025 0.008256804 0.0055045364 -0.04678856 -0.07568738 0.061926033 0.055045366 -0.022018146 -0.052293096 0.052293096 -0.086696446 -0.055045366
0000a0 b2 79 78 6f 99 94 68 92 b2 86 64 7b c6 a8 52 a2
       0.05366923 -0.024770414 -0.026146548 -0.038531754 0.019265877 0.012385207 -0.048164696 0.009632939 0.05366923 -0.006880671 -0.05366923 -0.022018146 0.08119191 0.039907888 -0.078439645 0.031651083
0000b0 a3 b0 e0 6f 86 7d 92 c6 7b 77 8f 96 71 84 99 6e
       0.033027217 0.050916962 0.116971396 -0.038531754 -0.006880671 -0.019265877 0.009632939 0.08119191 -0.022018146 -0.027522683 0.0055045364 0.015137475 -0.035779487 -0.009632939 0.019265877 -0.039907888
0000c0 64 8e 7d 8e 7c 64 8a 6c 95 50 cb 87 b8 42 6d 96
       -0.05366923 0.004128402 -0.019265877 0.004128402 -0.020642012 -0.05366923 -0.0013761341 -0.042660158 0.013761342 -0.08119191 0.08807258 -0.0055045364 0.061926033 -0.10045779 -0.041284025 0.015137475
0000d0 9a 90 5c b8 8c 6f 8e 87 7c 7e 6d 64 90 74 b2 9c
       0.020642012 0.006880671 -0.064678304 0.061926033 0.0013761341 -0.038531754 0.004128402 -0.0055045364 -0.020642012 -0.017889744 -0.041284025 -0.05366923 0.006880671 -0.031651083 0.05366923 0.02339428
0000e0 9a 96 9a a6 a1 88 46 6c 7b 97 c1 89 5a 94 71 81
       0.020642012 0.015137475 0.020642012 0.03715562 0.03027495 -0.004128402 -0.094953254 -0.042660158 -0.022018146 0.016513608 0.07431124 -0.0027522682 -0.06743057 0.012385207 -0.035779487 -0.013761342
0000f0 91 cb 8f 88 ca 75 bc 73 72 88 5d 78 7d 94 a3 5f
       0.008256804 0.08807258 0.0055045364 -0.004128402 0.086696446 -0.03027495 0.06743057 -0.033027217 -0.034403354 -0.004128402 -0.06330217 -0.026146548 -0.019265877 0.012385207 0.033027217 -0.0605499

blocks/11/mobile_inverted_conv/point_linear/conv/weights_quant/FakeQuantWithMinMaxVars u1 [48, 1, 1, 160] scale=0.005426905 zero_point=134
000000 61 92 a9 82 94 81 90 7f 85 77 ab b2 a0 82 9d 58
       -0.20079549 0.06512286 0.18994167 -0.02170762 0.07597667 -0.027134527 0.054269053 -0.037988335 -0.005426905 -0.081403576 0.20079549 0.23878382 0.14109953 -0.02170762 0.12481882 -0.24963763
000010 82 7b 8e 58 81 cb 85 6a 9f 9b 6b a4 92 75 87 7f
       -0.02170762 -0.059695955 0.04341524 -0.24963763 -0.027134527 0.37445647 -0.005426905 -0.15195334 0.13567263 0.113965005 -0.14652644 0.16280715 0.06512286 -0.09225739 0.005426905 -0.037988335
000020 c8 89 7e 75 99 6c 65 91 6b a2 86 97 82 4e a8 8f
       0.35817572 0.016280714 -0.04341524 -0.09225739 0.1031112 -0.14109953 -0.17908786 0.059695955 -0.14652644 0.15195334 0.0 0.09225739 -0.02170762 -0.30390668 0.18451478 0.048842147
000030 a1 7b 91 7d 92 81 88 75 71 76 a5 7b 98 76 92 94
       0.14652644 -0.059695955 0.059695955 -0.048842147 0.06512286 -0.027134527 0.01085381 -0.09225739 -0.113965005 -0.08683048 0.16823407 -0.059695955 0.097684294 -0.08683048 0.06512286 0.07597667
000040 8a 6b a5 61 8e 78 85 7d 83 87 8e 7d 9b 60 6d 92
       0.02170762 -0.14652644 0.16823407 -0.20079549 0.04341524 -0.07597667 -0.005426905 -0.048842147 -0.016280714 0.005426905 0.04341524 -0.048842147 0.113965005 -0.2062224 -0.13567263 0.06512286
000050 9f 94 b0 89 9a 66 7c 94 95 9b 97 8a 96 77 b5 7d
       0.13567263 0.07597667 0.22793001 0.016280714 0.108538106 -0.17366096 -0.054269053 0.07597667 0.081403576 0.113965005 0.09225739 0.02170762 0.08683048 -0.081403576 0.25506455 -0.048842147
000060 8c 65 61 9c b1 54 7f 4d 77 81 c2 41 7e 71 9b ac
       0.03256143 -0.17908786 -0.20079549 0.11939191 0.23335692 -0.27134526 -0.037988335 -0.3093336 -0.081403576 -0.027134527 0.3256143 -0.37445647 -0.04341524 -0.113965005 0.113965005 0.2062224
000070 92 7f 87 7e 76 62 6a 72 84 b9 6e 7a af 89 7a b3
       0.06512286 -0.037988335 0.005426905 -0.04341524 -0.08683048 -0.19536859 -0.15195334 -0.108538106 -0.01085381 0.27677217 -0.13024572 -0.06512286 0.22250311 0.016280714 -0.06512286 0.24421073
000080 73 89 7d 47 5f 5b 63 e3 87 a5 73 ab a2 b4 96 7d
       -0.1031112 0.016280714 -0.048842147 -0.341895 -0.2116493 -0.23335692 -0.18994167 0.50470215 0.005426905 0.16823407 -0.1031112 0.20079549 0.15195334 0.24963763 0.08683048 -0.048842147
000090 90 89 bd 70 76 6f 8a 7d c0 a2 a6 8e 7b 8e 83 8c
       0.054269053 0.016280714 0.2984798 -0.11939191 -0.08683048 -0.12481882 0.02170762 -0.048842147 0.3147605 0.15195334 0.17366096 0.04341524 -0.059695955 0.04341524 -0.016280714 0.03256143
0000a0 6f 8e ae 3c 6f ac 70 96 8b 79 77 a1 6a 6e a0 8c
       -0.12481882 0.04341524 0.21707621 -0.40159097 -0.12481882 0.2062224 -0.11939191 0.08683048 0.027134527 -0.070549764 -0.081403576 0.14652644 -0.15195334 -0.13024572 0.14109953 0.03256143
0000b0 a2 8c 9c 64 9a 8a 77 b1 62 b6 7f 81 73 a1 73 90
       0.15195334 0.03256143 0.11939191 -0.18451478 0.108538106 0.02170762 -0.081403576 0.23335692 -0.19536859 0.26049143 -0.037988335 -0.027134527 -0.1031112 0.14652644 -0.1031112 0.054269053
0000c0 99 a2 ae 77 7d 96 86 aa 79 89 88 a0 7c 54 65 b4
       0.1031112 0.15195334 0.21707621 -0.081403576 -0.048842147 0.08683048 0.0 0.19536859 -0.070549764 0.016280714 0.01085381 0.14109953 -0.054269053 -0.27134526 -0.17908786 0.24963763
0000d0 64 8b 8a 93 8f 4a 91 95 94 ac 74 9f b2 97 86 9f
       -0.18451478 0.027134527 0.02170762 0.070549764 0.048842147 -0.3256143 0.059695955 0.081403576 0.07597667 0.2062224 -0.097684294 0.13567263 0.23878382 0.09225739 0.0 0.13567263
0000e0 88 8d 99 85 83 86 8e 97 60 a3 72 95 a5 7f 7f aa
       0.01085381 0.037988335 0.1031112 -0.005426905 -0.016280714 0.0 0.04341524 0.09225739 -0.2062224 0.15738025 -0.108538106 0.081403576 0.16823407 -0.037988335 -0.037988335 0.19536859
0000f0 77 a8 84 98 5f b7 bd 58 48 83 6c 8d ca 63 9a 9f
       -0.081403576 0.18451478 -0.01085381 0.097684294 -0.2116493 0.26591834 0.2984798 -0.24963763 -0.33646813 -0.016280714 -0.14109953 0.037988335 0.36902955 -0.18994167 0.108538106 0.13567263

blocks/12/mobile_inverted_conv/depth_conv/conv/weights_quant/FakeQuantWithMinMaxVars u1 [1, 5, 5, 96] scale=0.037693713 zero_point=118
000000 72 74 70 7e 70 73 8b 7c 79 72 8a 72 7c 74 71 78
       -0.15077485 -0.075387426 -0.22616228 0.3015497 -0.22616228 -0.11308114 0.791568 0.22616228 0.11308114 -0.15077485 0.75387424 -0.15077485 0.22616228 -0.075387426 -0.18846856 0.075387426
000010 7a 7a 70 6a 76 7e 71 7c 7f 70 70 75 8d 6c 77 7b
       0.15077485 0.15077485 -0.22616228 -0.45232457 0.0 0.3015497 -0.18846856 0.22616228 0.3392434 -0.22616228 -0.22616228 -0.037693713 0.8669554 -0.37693712 0.037693713 0.18846856
000020 79 76 82 6f 6d 78 73 77 7f 80 7c 7e 6f 81 81 76
       0.11308114 0.0 0.45232457 -0.263856 -0.3392434 0.075387426 -0.11308114 0.037693713 0.3392434 0.37693712 0.22616228 0.3015497 -0.263856 0.41463083 0.41463083 0.0
000030 72 75 74 6f 79 74 6d 77 77 72 75 6d 84 7b 76 78
       -0.15077485 -0.037693713 -0.075387426 -0.263856 0.11308114 -0.075387426 -0.3392434 0.037693713 0.037693713 -0.15077485 -0.037693713 -0.3392434 0.527712 0.18846856 0.0 0.075387426
000040 6c 75 35 7e 79 72 7e 74 6a 71 77 7b 80 72 79 69
       -0.37693712 -0.037693713 -2.4500914 0.3015497 0.11308114 -0.15077485 0.3015497 -0.075387426 -0.45232457 -0.18846856 0.037693713 0.18846856 0.37693712 -0.15077485 0.11308114 -0.49001828
000050 76 6e 6f 7d 77 80 7d 74 76 77 6d 7c 6f 76 7b 70
       0.0 -0.3015497 -0.263856 0.263856 0.037693713 0.37693712 0.263856 -0.075387426 0.0 0.037693713 -0.3392434 0.22616228 -0.263856 0.0 0.18846856 -0.22616228
000060 73 75 75 6f 75 74 83 76 78 73 79 76 7d 74 79 78
       -0.11308114 -0.037693713 -0.037693713 -0.263856 -0.037693713 -0.075387426 0.49001828 0.0 0.075387426 -0.11308114 0.11308114 0.0 0.263856 -0.075387426 0.11308114 0.075387426
000070 7a 7a 74 72 76 7b 78 7d 7d 71 72 7a 6f 74 72 76
       0.15077485 0.15077485 -0.075387426 -0.15077485 0.0 0.18846856 0.075387426 0.263856 0.263856 -0.18846856 -0.15077485 0.15077485 -0.263856 -0.075387426 -0.15077485 0.0
000080 72 72 85 71 74 77 74 77 77 72 74 7d 73 73 7a 76
       -0.15077485 -0.15077485 0.56540567 -0.18846856 -0.075387426 0.037693713 -0.075387426 0.037693713 0.037693713 -0.15077485 -0.075387426 0.263856 -0.11308114 -0.11308114 0.15077485 0.0
000090 72 73 72 73 70 78 75 7a 75 71 76 82 80 75 78 80
       -0.15077485 -0.11308114 -0.15077485 -0.11308114 -0.22616228 0.075387426 -0.037693713 0.15077485 -0.037693713 -0.18846856 0.0 0.45232457 0.37693712 -0.037693713 0.075387426 0.37693712
0000a0 7b 70 27 7a 73 75 70 7b 72 75 78 76 7a 72 76 86
       0.18846856 -0.22616228 -2.9778032 0.15077485 -0.11308114 -0.037693713 -0.22616228 0.18846856 -0.15077485 -0.037693713 0.075387426 0.0 0.15077485 -0.15077485 0.0 0.6030994
0000b0 74 74 70 71 74 74 7b 72 71 77 76 72 6e 73 75 6c
       -0.075387426 -0.075387426 -0.22616228 -0.18846856 -0.075387426 -0.075387426 0.18846856 -0.15077485 -0.18846856 0.037693713 0.0 -0.15077485 -0.3015497 -0.11308114 -0.037693713 -0.37693712
0000c0 71 6e 77 7b 6c 6f 98 7b 7a 76 74 7d 79 73 88 82
       -0.18846856 -0.3015497 0.037693713 0.18846856 -0.37693712 -0.263856 1.2815863 0.18846856 0.15077485 0.0 -0.075387426 0.263856 0.11308114 -0.11308114 0.6784868 0.45232457
0000d0 70 7a 71 64 69 7b 83 86 86 73 78 a0 6c 7b 6d 7c
       -0.22616228 0.15077485 -0.18846856 -0.6784868 -0.49001828 0.18846856 0.49001828 0.6030994 0.6030994 -0.11308114 0.075387426 1.583136 -0.37693712 0.18846856 -0.3392434 0.22616228
0000e0 7f 6b 82 70 71 67 71 7a 79 6d 7a 8b 6f 89 81 73
       0.3392434 -0.41463083 0.45232457 -0.22616228 -0.18846856 -0.56540567 -0.18846856 0.15077485 0.11308114 -0.3392434 0.15077485 0.791568 -0.263856 0.71618056 0.41463083 -0.11308114
0000f0 6c 70 6b 6b 6b 78 87 75 74 7b 6b 85 84 6f 71 79
       -0.37693712 -0.22616228 -0.41463083 -0.41463083 -0.41463083 0.075387426 0.64079314 -0.037693713 -0.075387426 0.18846856 -0.41463083 0.56540567 0.527712 -0.263856 -0.18846856 0.11308114

blocks/12/mobile_inverted_conv/inverted_bottleneck/conv/weights_quant/FakeQuantWithMinMaxVars u1 [96, 1, 1, 48] scale=0.0021479863 zero_point=104
000000 7c 6e 7a 63 5c 6e 8e 20 8b 3a 5f 85 6a 6b 72 89
       0.042959727 0.012887917 0.038663752 -0.010739932 -0.025775835 0.012887917 0.08162348 -0.15465501 0.075179525 -0.09880737 -0.019331876 0.062291604 0.0042959726 0.0064439587 0.021479864 0.07088355
000010 65 78 66 85 5e 63 64 90 65 5c 78 56 71 3a 33 93
       -0.0064439587 0.03436778 -0.0042959726 0.062291604 -0.021479864 -0.010739932 -0.008591945 0.085919455 -0.0064439587 -0.025775835 0.03436778 -0.038663752 0.019331876 -0.09880737 -0.11384328 0.09236341
000020 53 5b 6e 72 60 52 69 67 68 76 49 77 57 4d 8c 56
       -0.04510771 -0.027923822 0.012887917 0.021479864 -0.01718389 -0.0472557 0.0021479863 -0.0021479863 0.0 0.030071808 -0.066587575 0.032219794 -0.03651577 -0.057995632 0.077327505 -0.038663752
000030 67 6a 75 69 60 70 72 49 54 5e 7f 2c 57 7b a8 75
       -0.0021479863 0.0042959726 0.027923822 0.0021479863 -0.01718389 0.01718389 0.021479864 -0.066587575 -0.042959727 -0.021479864 0.049403686 -0.12887917 -0.03651577 0.04081174 0.13747112 0.027923822
000040 58 6f 74 56 87 7e 51 79 74 53 72 60 9b 6f 59 6d
       -0.03436778 0.015035904 0.025775835 -0.038663752 0.066587575 0.0472557 -0.049403686 0.03651577 0.025775835 -0.04510771 0.021479864 -0.01718389 0.1095473 0.015035904 -0.032219794 0.010739932
000050 89 8c 4f 38 5a 70 6b 65 7b 7b 73 62 31 6c 60 61
       0.07088355 0.077327505 -0.053699657 -0.10310334 -0.030071808 0.01718389 0.0064439587 -0.0064439587 0.04081174 0.04081174 0.02362785 -0.012887917 -0.118139245 0.008591945 -0.01718389 -0.015035904
000060 80 5a 70 57 80 59 55 4b 76 68 7f 77 54 6c 66 70
       0.05155167 -0.030071808 0.01718389 -0.03651577 0.05155167 -0.032219794 -0.04081174 -0.062291604 0.030071808 0.0 0.049403686 0.032219794 -0.042959727 0.008591945 -0.0042959726 0.01718389
000070 57 57 51 57 4f 58 5f 5f 5d 72 62 7a 57 7b 7e 51
       -0.03651577 -0.03651577 -0.049403686 -0.03651577 -0.053699657 -0.03436778 -0.019331876 -0.019331876 -0.02362785 0.021479864 -0.012887917 0.038663752 -0.03651577 0.04081174 0.0472557 -0.049403686
000080 48 53 66 6a 59 94 5d 5e 68 73 45 7f 7d 70 74 65
       -0.06873556 -0.04510771 -0.0042959726 0.0042959726 -0.032219794 0.0945114 -0.02362785 -0.021479864 0.0 0.02362785 -0.075179525 0.049403686 0.04510771 0.01718389 0.025775835 -0.0064439587
000090 63 53 36 6a 5d 88 64 7d 53 65 50 70 96 75 78 5b
       -0.010739932 -0.04510771 -0.107399315 0.0042959726 -0.02362785 0.06873556 -0.008591945 0.04510771 -0.04510771 -0.0064439587 -0.05155167 0.01718389 0.09880737 0.027923822 0.03436778 -0.027923822
0000a0 75 63 5f 6d 6a 6b 7a 86 67 73 7f 6b 64 46 61 54
       0.027923822 -0.010739932 -0.019331876 0.010739932 0.0042959726 0.0064439587 0.038663752 0.06443959 -0.0021479863 0.02362785 0.049403686 0.0064439587 -0.008591945 -0.07303154 -0.015035904 -0.042959727
0000b0 75 62 63 56 46 34 62 7c 68 83 6b 6c 3c 99 69 7f
       0.027923822 -0.012887917 -0.010739932 -0.038663752 -0.07303154 -0.11169529 -0.012887917 0.042959727 0.0 0.057995632 0.0064439587 0.008591945 -0.0945114 0.10525133 0.0021479863 0.049403686
0000c0 67 50 6a 5d 2d 92 6f 6b 3b 56 5d 4b 83 4f 3c 5f
       -0.0021479863 -0.05155167 0.0042959726 -0.02362785 -0.12673119 0.09021542 0.015035904 0.0064439587 -0.096659385 -0.038663752 -0.02362785 -0.062291604 0.057995632 -0.053699657 -0.0945114 -0.019331876
0000d0 57 5c 52 68 50 3e 83 60 44 5e 85 63 66 66 72 7b
       -0.03651577 -0.025775835 -0.0472557 0.0 -0.05155167 -0.09021542 0.057995632 -0.01718389 -0.077327505 -0.021479864 0.062291604 -0.010739932 -0.0042959726 -0.0042959726 0.021479864 0.04081174
0000e0 5c 60 5b 84 6a 53 4a 82 8d 67 89 86 75 72 45 60
       -0.025775835 -0.01718389 -0.027923822 0.060143616 0.0042959726 -0.04510771 -0.06443959 0.055847645 0.07947549 -0.0021479863 0.07088355 0.06443959 0.027923822 0.021479864 -0.075179525 -0.01718389
0000f0 4b 6c 59 6b 83 80 63 75 68 5c 80 5d 6d 64 8c 91
       -0.062291604 0.008591945 -0.032219794 0.0064439587 0.057995632 0.05155167 -0.010739932 0.027923822 0.0 -0.025775835 0.05155167 -0.02362785 0.010739932 -0.008591945 0.077327505 0.08806744
